best_model.pth (torch, 107106 bytes, 8 tensors)

localizator.0.bias f4 [16]
-0.004202961 -0.019635838 0.025077488 0.01645061 -0.0094187725 -0.014182249 0.022471935 -0.013363333
-0.0014600381 -0.0039309063 -0.009340336 -0.015322585 0.00031621085 -0.014376089 -0.0023679195 0.0148157375
00000000: feb8 89bb 56db a0bc 4e6f cd3c 6ec3 863c
00000010: 3251 1abc aa5c 68bc 1017 b83c e2f1 5abc
00000020: c05e bfba d5ce 80bb 3508 19bc 940b 7bbc
00000030: 1ac9 a539 b089 6bbc 192f 1bbb b5bd 723c

localizator.0.parametrizations.weight.original0 f4 [16, 1, 1, 1]
0.54212636 0.6023064 0.71785223 0.588823 0.5935758 0.62261003 0.58750546 0.5679069
0.58785176 0.6023169 0.6187828 0.6062443 0.5852812 0.60413456 0.60991514 0.6024516
00000000: cbc8 0a3f c130 1a3f 2ac5 373f 1bbd 163f
00000010: 95f4 173f 5f63 1f3f c266 163f 5962 113f
00000020: 747d 163f 7131 1a3f 8d68 1e3f d432 1b3f
00000030: fdd4 153f 90a8 1a3f 6623 1c3f 453a 1a3f

localizator.0.parametrizations.weight.original1 f4 [16, 4, 100, 4]
-0.005255541 -0.007578089 0.010511717 -0.015154269 -0.0034195147 -0.020063262 0.014285391 0.0008257887
0.00080012326 -0.004891203 0.0035573777 0.024163553 -0.009297501 0.019750955 -0.0027022976 -0.004220826
0.002264921 0.023915488 0.021347703 -0.020379651 0.019586014 0.028869437 -0.014455597 0.020342382
0.0043438403 -0.021878023 0.017169952 -0.012556595 -0.011608258 0.020916717 -0.014444534 0.0082221115
-0.0056868256 0.0086913165 -0.0015110972 0.023431689 -0.009754046 0.0123545695 -0.006069054 -0.023701457
-0.02158735 -0.0017090234 -0.026056431 -0.015742706 0.012217331 -0.016544985 0.0031172214 0.022596292
-0.0019584068 0.022865424 0.019548034 0.01412892 -0.019595101 -0.01788233 0.021025741 0.022549886
0.023336334 0.021227913 -0.016963389 -0.00880028 0.017506205 -0.006136338 -0.021345532 -0.012625295
-0.018708013 -0.0132408235 -0.011564633 -0.02451373 -0.017264698 -0.017093522 -0.015512964 0.015905805
-0.012681697 -0.019461945 0.01784283 -0.0059033637 0.012232705 -0.002371416 -0.0077656074 0.00044802998
0.0070412015 -0.018866481 0.008515719 0.003509092 0.006288987 0.006539899 -0.005109175 0.018497165
0.0037214332 0.014801141 0.008848152 -0.018324234 -0.013674021 0.024645174 0.010551545 0.0023838906
-0.008380034 -0.009318869 -0.0050748195 0.013277434 0.009784589 0.01519139 -0.004161038 0.0032355012
-0.00086070516 0.004023841 -0.008549093 -0.015917158 0.0034790041 0.003549508 0.0040572872 -0.012710653
-0.025167149 -0.019567847 -0.009947625 0.025518386 0.0064452807 0.027309231 0.010314236 0.01573305
-0.006286418 0.0050046034 0.00038703743 -0.017013125 -0.03151022 0.0052738 0.01556295 -0.02432263
-0.0037101312 0.013591934 -0.003996281 0.014785234 0.013433408 -0.016362369 -0.021819849 0.0017243124
-0.015144337 -0.010081409 0.009236561 -0.013432157 0.005817423 -0.008780765 0.0042045894 0.008989341
0.022908153 -0.002475465 -0.0002240827 0.023399835 0.012788407 0.0058528623 -0.019273093 0.025274849
0.024888765 -0.01928053 0.011139121 -0.009632904 0.018629182 0.012468667 -0.0016884147 0.01903625
-0.01141246 -0.0077793063 0.022280414 0.011348241 -0.0062658507 0.0108174775 -0.00071819726 -0.017095137
0.0009537071 -0.016044367 0.008555679 0.012292206 -0.00972043 0.0049575986 -0.007914366 0.0054410445
-0.0073958356 -0.0080951 0.007966664 0.0010913309 0.022697384 -0.007643065 -0.005093107 0.00096997246
-0.0037173415 -0.020013193 -0.008226578 0.00818748 0.02510474 0.027192812 0.011340228 0.020979214
0.011091997 -0.004731297 0.02089141 0.0043157917 0.009050912 -0.013731613 -0.011242336 0.010282308
-0.017784424 -0.005958766 0.021804802 0.012800766 0.007180491 0.021480858 0.009144435 -0.023189276
-0.021975039 -0.004018699 0.017936034 0.013696773 0.0063171918 -0.018088482 -0.004557463 0.011237635
0.020988557 -0.0018070795 0.012998385 0.0029036107 0.02583812 0.016923992 0.012157249 -0.0003953737
-0.01750272 -0.00018411568 0.008548178 -0.012276012 -0.013330358 -0.017330779 -0.009646832 -0.02402858
-0.006185993 -0.017072868 0.026072182 0.022417156 0.0051171673 0.017623957 0.013494123 -0.009244916
0.00720303 0.021555228 -0.025427602 -0.007909762 -0.009416739 0.015298551 0.016546927 -0.0015582516
-0.021665921 -0.019926568 0.019464593 -0.021830764 -0.012407175 0.009241023 0.009309344 -0.007897228
00000000: ac36 acbb 9e51 f8bb 5639 2c3c 9c49 78bc
00000010: f019 60bb b65b a4bc 460d 6a3c be79 583a
00000020: 5dbf 513a 6246 a0bb e522 693b a5f2 c53c
00000030: 8c54 18bc c1cc a13c 0819 31bb db4e 8abb
00000040: 126f 143b 6aea c33c 61e1 ae3c 3af3 a6bc
00000050: d972 a03c 997f ec3c 2bd7 6cbc 11a5 a63c
00000060: c656 8e3b 8a39 b3bc 00a8 8c3c 2dba 4dbc
00000070: 9030 3ebc 8959 ab3c c4a8 6cbc 09b6 063c
00000080: 8d58 babb 0666 0e3c 0210 c6ba d0f3 bf3c
00000090: 6fcf 1fbc d26a 4a3c eade c6bb 8f29 c2bc
000000a0: f4d7 b0bc 4f01 e0ba 4c74 d5bc d9f6 80bc
000000b0: 332b 483c 5989 87bc 4c4a 4c3b dc1b b93c
000000c0: 9d58 00bb 4550 bb3c 3323 a03c fc7c 673c
000000d0: e885 a0bc f77d 92bc 2d3e ac3c 8aba b83c
000000e0: d72b bf3c 29e6 ad3c cef6 8abc 0d2f 10bc
000000f0: 2c69 8f3c 5613 c9bb d3dc aebc 53da 4ebc
00000100: 8c41 99bc 0af0 58bc 9679 3dbc 05d1 c8bc
00000110: b26e 8dbc b707 8cbc 162a 7ebc e44c 823c
00000120: e4c6 4fbc a86e 9fbc 202b 923c 0171 c1bb
00000130: af6b 483c c269 1bbb a376 febb 91e5 ea39
00000140: e1b9 e63b e18d 9abc 8485 0b3c cbf8 653b
00000150: d913 ce3b a64c d63b de6a a7bb 5e87 973c
00000160: 4ae3 733b 7c80 723c d7f7 103c b41c 96bc
00000170: 0009 60bc ade4 c93c 63e0 2c3c 0c3b 1c3b
00000180: 694c 09bc 2bae 18bc ac4a a6bb 9889 593c
00000190: 8a4f 203c 4fe5 783c 5159 88bb b40a 543b
000001a0: f2a0 61ba 6dda 833b 7f11 0cbc b364 82bc
000001b0: 0100 643b dd9e 683b fef2 843b 5840 50bc
000001c0: 562b cebc c04c a0bc 5dfb 22bc ef0b d13c
000001d0: ef32 d33b 9cb7 df3c 0bfd 283c 99e2 803c
000001e0: 4cfe cdbb a8fd a33b 49eb ca39 1c5f 8bbc
000001f0: dc10 01bd d7cf ac3b befb 7e3c 4140 c7bc
00000200: ac25 73bb b4b0 5e3c 3cf3 82bb c43d 723c
00000210: cc17 5c3c 600a 86bc 8abf b2bc 5302 e23a
00000220: f41f 78bc 7e2c 25bc f254 173c 8d12 5cbc
00000230: 15a0 be3b 33dd 0fbc a7c6 893b 0748 133c
00000240: e1a9 bb3c 693b 22bb bef7 6ab9 03b1 bf3c
00000250: 7786 513c 5ec9 bf3b 9be2 9dbc 330d cf3c
00000260: 86e3 cb3c 34f2 9dbc dc80 363c 54d3 1dbc
00000270: 3a9c 983c 6149 4c3c cc4d ddba e9f1 9b3c
00000280: 54fb 3abc 8de9 febb 6a85 b63c f9ed 393c
00000290: c451 cdbb ca3b 313c 6745 3cba 1a0b 8cbc
000002a0: 3302 7a3a 7a6f 83bc 1e2d 0c3c 4065 493c
000002b0: 7042 1fbc 5a73 a23b 42ab 01bc ca4a b23b
000002c0: c458 f2bb 4fa1 04bc 9c86 023c fd0a 8f3a
000002d0: ddef b93c ad72 fabb 14e4 a6bb c045 7e3a
000002e0: a49e 73bb b5f2 a3bc c5c8 06bc c824 063c
000002f0: 75a8 cd3c 76c3 de3c 5dcc 393c 9adc ab3c
00000300: 35bb 353c ff08 9bbb 7624 ab3c 7c6b 8d3b
00000310: 474a 143c 8ffa 60bc c631 38bc 2077 283c
00000320: a4b0 91bc c141 c3bb fc9f b23c 4eba 513c
00000330: 534a eb3b a0f8 af3c 8ad2 153c 70f7 bdbc
00000340: ff04 b4bc 4aaf 83bb 97ee 923c 6e68 603c
00000350: 7200 cf3b 4c2e 94bc c556 95bb 0f1e 383c
00000360: 32f0 ab3c 87db ecba 2ef7 543c 814a 3e3b
00000370: 77aa d33c 2fa4 8a3c 332f 473c 294a cfb9
00000380: dd61 8fbc 2d0f 41b9 a80d 0c3c 5421 49bc
00000390: 9367 5abc 47f9 8dbc bf0d 1ebc 96d7 c4bc
000003a0: dfb3 cabb 66dc 8bbc 5495 d53c 2fa4 b73c
000003b0: e9ad a73b 1e60 903c 7416 5d3c fd77 17bc
000003c0: 6507 ec3b 9794 b03c 8c4d d0bc f297 01bc
000003d0: ab48 1abc c6a6 7a3c 6c8d 873c 3f3e ccba
000003e0: bb7c b1bc 0b3d a3bc 3674 9f3c 6ed6 b2bc
000003f0: 7747 4bbc a967 173c 3886 183c 6063 01bc

localizator.1.weight f4 [16]
0.9740709 1.0515318 1.0770046 1.041121 1.0595137 1.0588646 1.0595988 1.0570638
1.0342753 1.0560739 1.05712 1.0572819 1.052343 1.0523243 1.0448176 1.0572215
00000000: b65c 793f 9898 863f 49db 893f 7443 853f
00000010: 259e 873f e088 873f efa0 873f de4d 873f
00000020: 2263 843f 6e2d 873f b54f 873f 0355 873f
00000030: 2db3 863f 90b2 863f 95bc 853f 0953 873f

localizator.1.bias f4 [16]
-0.032242358 0.05097949 0.069208324 0.05593127 0.055257346 0.056643084 0.053345367 0.03249114
0.05437099 0.05545253 0.0688996 0.056868684 0.048696723 0.051748417 0.032788076 0.05536937
00000000: 9010 04bd dfcf 503d 18bd 8d3d 3018 653d
00000010: 8755 623d 9402 683d ac80 5a3d 6e15 053d
00000020: 1db4 5e3d 3122 633d 3c1b 8d3d 23ef 683d
00000030: 3776 473d 26f6 533d ca4c 063d feca 623d

localizator.1.running_mean f4 [16]
0.09363569 -0.8111962 -0.611068 -0.21374682 -0.04787802 -0.48997444 -0.013136717 0.07375592
0.6439131 -0.82730824 0.022739153 -1.2008471 0.40392953 0.05385884 0.6040623 -0.5829154
00000000: 12c4 bf3d 8eaa 4fbf f46e 1cbf 72e0 5abe
00000010: be1b 44bd eedd fabe 623b 57bc 580d 973d
00000020: 7dd7 243f 79ca 53bf 7647 ba3c 5cb5 99bf
00000030: dacf ce3e 169b 5c3d d4a3 1a3f f239 15bf

localizator.1.running_var f4 [16]
0.0016379758 0.42132732 0.047980648 0.093205824 0.13154303 0.11060073 0.10655433 0.21100636
0.178489 0.74110466 0.012157331 0.69942236 0.2569589 0.87341535 0.2629193 0.5028046
00000000: 59b1 d63a 37b8 d73e 5b87 443d b2e2 be3d
00000010: 37b3 063e a382 e23d 2839 da3d 0d12 583e
00000020: d2c5 363e 09b9 3d3f 8b2f 473c 580d 333f
00000030: 1e90 833e 2698 5f3f 5c9d 863e cdb7 003f

localizator.4.weight f4 [1, 48]
0.07377313 0.007168542 0.013438094 -0.15491934 -0.12336761 -0.12190507 -0.08634959 -0.0009236845
-0.12536032 0.13033153 -0.1858193 -0.02325426 -0.15101212 0.097753696 0.1369137 -0.057978965
-0.13806248 -0.052031115 -0.17188297 0.05746378 -0.13384469 -0.08141426 0.10253817 -0.06819355
0.087988794 -0.15377866 -0.20737845 -0.107190974 -0.15467107 0.030257473 0.028092943 -0.21410221
0.047245797 -0.09311503 -0.029472942 -0.1380068 -0.033338152 -0.1603715 -0.18355297 -0.1311701
-0.1221231 0.11301759 0.105491236 -0.020919858 -0.046745062 0.1056668 -0.17782511 -0.032821365
00000000: 5e16 973d 17e6 ea3b 742b 5c3c 2da3 1ebe
00000010: 28a8 fcbd 5ea9 f9bd 0ed8 b0bd 6b23 72ba
00000020: 755e 00be a175 053e 6a47 3ebe b87f bebc
00000030: eca2 1abe 1733 c83d 1b33 0c3e 5a7b 6dbd
00000040: 4060 0dbe 941e 55bd 1702 30be 245f 6b3d
00000050: 950e 09be 85bc a6bd 88ff d13d 0fa9 8bbd
00000060: 7833 b43d 2778 1dbe 045b 54be f186 dbbd
00000070: 1862 1ebe 85de f73c 2c23 e63c 9c3d 5bbe
00000080: cf84 413d 18b3 bebd 3d71 f1bc a851 0dbe
00000090: 968d 08bd 6d38 24be 4ff5 3bbe 7451 06be
000000a0: ad1b fabd c475 e73d ca0b d83d 1f60 abbc
000000b0: c077 3fbd d667 d83d c917 36be b26f 06bd
